…
  layer_dense(units = 56) %&amp;gt;%
  layer_activation(activation = &amp;quot;relu&amp;quot;) %&amp;gt;%
  layer_dropout(rate = 0.2) %&amp;gt;%
  layer_dense(units = 10) %&amp;gt;%
  layer_activation(activation = &amp;quot;softmax&amp;quot;)
summary(MNIST_model)&lt;/code&gt;&lt;/pre&gt;
&lt;pre&gt;&lt;code&gt;## Model: &amp;quot;sequential_1&amp;quot;
## ___________________________________________________________________________
## Layer (type)                     Output Shape                  Param #     
## ===========================================================================
## dense_1 (Dense)                  (None, 256)                   200960      
## ___________________________________________________________________________
## activation_1 (Activation)        (None, 256)                   0           
## ___________________________________________________________________________
## dropout_1 (Dropout)              (None, 256)                   0           
## ___________________________________________________________________________
## dense_2 (Dense)                  (None, 128)                   32896       
## ___________________________________________________________________________
## activation_2 (Activation)        (None, 128)                   0           
## ___________________________________________________________________________
## dropout_2 (Dropout)              (None, 128)                   0           
## ___________________________________________________________________________
## dense_3 (Dense)                  (None, 56)                    7224        
## ___________________________________________________________________________
## activation_3 (Activation)        (None, 56)                    0           
## ___________________________________________________________________________
## dropout_3 (Dropout)              (None, 56)                    0           
## ___________________________________________________________________________
## dense_4 (Dense)                  (None, 10)                    570         
## ___________________________________________________________________________
## activation_4 (Activation)        (None, 10)                    0           
## ===========================================================================
## Total params: 241,650
## Trainable params: 241,650
## Non-trainable params: 0
## ___________________________________________________________________________&lt;/code&gt;&lt;/pre&gt;
&lt;p&gt;Here we can see the change in shape of the tensors throughout the model, and the number of trainable parameters at 
…
