…
 \u0026quot;relu\u0026quot;) %\u0026gt;% layer_dropout(rate = 0.3) %\u0026gt;% layer_dense(units = 56) %\u0026gt;% layer_activation(activation = \u0026quot;relu\u0026quot;) %\u0026gt;% layer_dropout(rate = 0.2) %\u0026gt;% layer_dense(units = 10) %\u0026gt;% layer_activation(activation = \u0026quot;softmax\u0026quot;) summary(MNIST_model) ## Model: \u0026quot;sequential_1\u0026quot; ## ___________________________________________________________________________ ## Layer (type) Output Shape Param # ## =========================================================================== ## dense_1 (Dense) (None, 256) 200960 ## ___________________________________________________________________________ ## activation_1 (Activation) (None, 256) 0 ## ___________________________________________________________________________ ## dropout_1 (Dropout) (None, 256) 0 ## ___________________________________________________________________________ ## dense_2 (Dense) (None, 128) 32896 ## ___________________________________________________________________________ ## activation_2 (Activation) (None, 128) 0 ## ___________________________________________________________________________ ## dropout_2 (Dropout) (None, 128) 0 ## ___________________________________________________________________________ ## dense_3 (Dense) (None, 56) 7224 ## ___________________________________________________________________________ ## activation_3 (Activation) (None, 56) 0 ## ___________________________________________________________________________ ## dropout_3 (Dropout) (None, 56) 0 ## ___________________________________________________________________________ ## dense_4 (Dense) (None, 10) 570 ## ___________________________________________________________________________ ## activation_4 (Activation) (None, 10) 0 ## =========================================================================== ## Total params: 241,650 ## Trainable params: 241,650 ## Non-trainable params: 0 ## ___________________________________________________________________________ Here we can see the change in shape of the tensors throughout the model, and the number of trainable parameters at each layer level. These are fully connected l
…
